model.pth (torch, 16787 bytes, 4 tensors)

linear1.weight f4 [256, 11]
00000000: 38b3 ab3e e690 56be 2eca 8d3e 3713 33be
00000010: 92cc b6bd 4b13 e2bd 90f2 0c3d 6b31 633e
00000020: d255 193e 23ba 9e3e de21 7dbe d0f7 ccbd
00000030: fe8f 79be ae12 91be ace8 4b3e d050 b7bc
00000040: 5e06 67be f094 653d 6169 78be 94d4 67be
00000050: 68c0 a5bd 446f e7bd 2536 e73e 37a0 06bc
00000060: c578 a63d 3fa9 87be b4d9 4abe 9069 5e3e
00000070: 15bb 4c3e 4722 ba3e 4d5d 583e 63fe 8a3e
00000080: ac1f 0a3d c798 993e 8f12 193e 2fbe 553e
00000090: efad 213e 2cf3 c13c 4bc9 03be d775 763e
000000a0: 1734 ae3e 6093 253e d271 893e fd74 763e
000000b0: e143 82bd be94 8fbe 18d6 cf3e 58db 68be
000000c0: ccf8 92bd 2944 4fbe e3fc a1be 812b adbd
000000d0: 79e1 86be 9913 5f3e 4985 493d 4294 d13e
000000e0: abbc 933d 7c96 57bd 20cb 36be 9f49 57be
000000f0: b434 8c3e 8fc5 c93d c77b 3f3e b49f 84be
00000100: 8b86 873e dc2c 23be 57f3 8f3e fdc8 d4bd
00000110: 9f56 c3bd a441 39be a36f 7e3d ddb4 0dbe
00000120: e989 953e d8b3 8e3d 80e5 b33e fcd1 6d3e
00000130: 2991 d8bd 76cd 413e cbf3 033d 9186 833d
00000140: 8af3 963e 2992 423e e42c 05be a3f0 453e
00000150: 5238 413e 49c5 783e ba2e 20be a950 2e3e
00000160: c4bb 06bf 94de 593e 3697 6d3e 32d5 a43e
00000170: 8c5b 62be c42d 7e3e be81 853e 5159 873e
00000180: b3d2 4f3e add1 28be 21a1 a93e b258 88be
00000190: 244a 15be a600 b8bd d8b7 b9be e680 8f3e
000001a0: 699d 87bc 24f0 053e 0f0f 8bbc d027 c43d
000001b0: 4973 80be da80 73be acd3 ea3e 0f76 313e
000001c0: 4df0 e9be 1ded 4cbe 4ab3 923c 8f35 0dbd
000001d0: 6468 903e 1d28 813e 9962 043e cc9e b93d
000001e0: 085c c8bb 663b 613e 1b43 733b 8749 5bbe
000001f0: bbe3 773c 10cd ef3d 5867 ee3d fc09 46be
00000200: 2e57 48be 7874 ebbd 0d5e 5dbd 5423 a53d
00000210: 4873 6cbd c94f 6fbe 76f8 723e 2165 c03c
00000220: eda4 35bd 4f6c f8bd bc71 8fbe 3536 a0bd
00000230: 4464 453e 2fc6 7fbe dc97 9cbc 43dd b23d
00000240: ae74 963d c9b6 733e d584 4fbe 230d 9a3e
00000250: cea4 bbbc 1d8b 01bc 236b 21bd 135c b2be
00000260: 0dd6 8a3d 9207 cdbd defa 11be b95a 363e
00000270: 2461 bd3e 753e 08be 1339 55bd 7bdc 6c3e
00000280: 0033 58bd ad2a 813e 9c3a 2a3d 4a6f b4bc
00000290: ef3e 34bc 267a 7d3e 2b30 b8bb 0127 a6be
000002a0: 5465 debd 3264 563e 4a2c 1fbd 5097 cfbd
000002b0: 1612 e5bd b608 8a3e bb54 e13d f918 583e
000002c0: 740a 5bbe 0edd 123b 0814 b43e 84df d0bd
000002d0: 1c5f 69be b745 1abd 3590 bebd 4b19 6cbd
000002e0: a477 dfbd e73e 8cbc 2c21 113e ecdf c73e
000002f0: af42 bcbc 16a3 683e af80 4ebe 3bb7 68be
00000300: 4548 aebd e884 e53d 8021 733e 755b 933e
00000310: acf6 a53e 7b54 413c 4c17 8abe 4a53 0ebe
00000320: d906 303e 7489 92be ad94 003e d8c1 843d
00000330: 69fc 8e3e 7d6d 603e 733b d03d a3bd d83d
00000340: 78ec 2b3d 84cb 6c3e 6a08 343d 6667 eebc
00000350: e4c9 aebe 5976 e03d 7f5a 99be a73b a4bd
00000360: 6447 6cbe 9970 953d 5930 213d def2 6fbe
00000370: 1c02 573d 6d53 3cbe 0dc3 b0bc a1e1 b73d
00000380: 44d7 ddbd ee62 883e 104d e9bd c580 8fbe
00000390: cf0f 833e ba65 d93d 9cb8 093c 8ca8 bebe
000003a0: 705f 8fbd 6c01 773e 27aa 273e 9b02 cd3d
000003b0: b443 8f3e 89f3 303d 0abc 933d f664 0dbe
000003c0: 2118 24be 229a 8dbd 4366 243d bb60 693d
000003d0: f807 813e 14a8 11be a9a8 333d 7922 90bd
000003e0: caf8 a03e 9b2a 5cbc 73f2 9f3e cf4f 683e
000003f0: 6395 05be 9502 21be 4cb9 333e 29bd 43be
0.3353517 -0.20953712 0.27693313 -0.17487799 -0.089257374 -0.11038836 0.034411013 0.2218682
0.14974144 0.31001386 -0.2471995 -0.10008204 -0.24371335 -0.28334564 0.19912976 -0.022377402
-0.22561023 0.05605024 -0.24258949 -0.22639686 -0.08093339 -0.11300519 0.45158496 -0.008216909
0.08128504 -0.26496312 -0.1980961 0.21719956 0.19993241 0.36354277 0.21129341 0.27147207
0.03372161 0.29999372 0.14948486 0.2087333 0.15789007 0.023675524 -0.12869756 0.2406839
0.34024116 0.161695 0.2684465 0.24068065 -0.06360603 -0.2804317 0.40593028 -0.22739923
-0.071763605 -0.20240845 -0.3163825 -0.08455563 -0.26343897 0.2178482 0.049199376 0.40933424
0.0721372 -0.052633747 -0.17850924 -0.21024178 0.2738396 0.098521344 0.18699561 -0.25903094
0.26469836 -0.15935081 0.2811534 -0.10389898 -0.09538006 -0.18091446 0.062118184 -0.13838525
0.2920678 0.06967896 0.35136032 0.23224634 -0.10574562 0.18926033 0.03221492 0.06422151
0.2948268 0.19001068 -0.13005406 0.19330077 0.1886914 0.24294008 -0.15642825 0.17022957
-0.5263026 0.21276313 0.23202214 0.32193905 -0.22105235 0.24822146 0.26075548 0.2643533
0.20295219 -0.16486235 0.33130744 -0.2663017 -0.14579064 -0.08984499 -0.36273074 0.2802803
-0.016554551 0.13079888 -0.016974954 0.09577906 -0.25087956 -0.23779622 0.45864618 0.17330192
-0.45691147 -0.20012327 0.017907757 -0.034474906 0.28204644 0.25225917 0.12928237 0.09063491
-0.0061144866 0.21995315 0.0037118855 -0.21414767 0.015129979 0.117090344 0.11640805 -0.19339746
-0.19564506 -0.11496824 -0.054044772 0.08063379 -0.05772713 -0.2337028 0.23727593 0.023485722
-0.04434674 -0.12130033 -0.2801646 -0.07822839 0.1927653 -0.24977945 -0.019115381 0.087336086
0.07346474 0.23800196 -0.20265515 0.30088148 -0.022905733 -0.007906702 -0.039408814 -0.34835872
0.06779108 -0.100112095 -0.14255854 0.17808045 0.36988175 -0.13305075 -0.052056383 0.23130982
-0.052783012 0.25227872 0.0415598 -0.022025723 -0.011001333 0.24753627 -0.0056209764 -0.32451633
-0.108591706 0.20936659 -0.038860597 -0.101362824 -0.1118509 0.2695977 0.11002489 0.21103276
-0.21390706 0.002240959 0.35171533 -0.10198882 -0.22790188 -0.03766414 -0.09304849 -0.05764131
-0.109114915 -0.017119838 0.1417281 0.39038026 -0.022981016 0.22718462 -0.20166276 -0.22726147
-0.08509878 0.112069905 0.23743248 0.28780714 0.32414758 0.011799927 -0.269709 -0.1389896
0.17190112 -0.28620493 0.12556715 0.06482285 0.2792695 0.21916766 0.10167589 0.10583045
0.04197356 0.2312451 0.043953337 -0.029102039 -0.34138405 0.10960073 -0.29951856 -0.0801919
-0.23074108 0.07296867 0.03935275 -0.2343249 0.052492246 -0.183912 -0.021577382 0.08978582
-0.10832074 0.26637977 -0.11391652 -0.2802793 0.25597998 0.10615106 0.008405831 -0.37237966
-0.07000625 0.24121636 0.16373502 0.100102626 0.2798134 0.043201003 0.072136 -0.13808045
-0.1602483 -0.06914164 0.040136587 0.056977015 0.25201392 -0.14224273 0.04386202 -0.07037825
0.3143981 -0.013437892 0.31239662 0.22686695 -0.13045268 -0.15723641 0.17551154 -0.19115128

linear1.bias f4 [256]
00000000: fce2 b53e fbb2 86be 836c 36be 97fb 073e
00000010: 94cf 923e 7595 5fbe 4ed4 813e 01ce bd3e
00000020: c6d9 b13d 4eac 663e b522 363e df6b 05bd
00000030: 3c42 5f3d d70d 91bd 4a98 efbc ad9b a3bd
00000040: 81b9 a03d c2bb b73d 35ab d13d 00a4 a83d
00000050: 665e 89be 11bf 863e ee5d 5c3e aff2 16be
00000060: 5bdf 06be 5018 023e e7c4 703e c853 803e
00000070: 6d0c 693d c8de 58be 86ce b63d 1998 fbbd
00000080: 0138 d93c c68f 0e3e f461 c1bd c19e d53d
00000090: b254 f6bd fced a7be 4b56 543e 0c44 38be
000000a0: 4ae6 11be b448 8dbe 4132 a43e 8594 caba
000000b0: 291b 00be 3b25 ecbd b66f 893e aa2a 833c
000000c0: 4ccb cfbd 2546 2ebe a949 3fbe 5417 963d
000000d0: 640f 6a3e 01f9 54bd d2ec 7d3e 403e f83d
000000e0: 9c04 bb3b 6836 a0be 5a42 0f3e affa 3fbe
000000f0: 4c0a a43e a6c3 a23e 4d25 463e fa64 2f3e
00000100: dbf9 8f3e 9f3e 25be 8392 3d3d 3fbb 7d3e
00000110: 1378 98bc 66c0 56be 61c4 eebd 721d cb3e
00000120: 1b72 c23d 76f7 683e 01b6 5b3e 09aa 50bd
00000130: 5c83 7fbe df11 f63d b1f4 283d 5be2 723e
00000140: f74d 2b3e f88a 163d a6de 24be 740a 943c
00000150: 0710 173d 8e1e 76bb 8b87 f23b 8246 813d
00000160: 3145 773e b928 963d 014a 173e b3b4 ddbd
00000170: bde9 d83d 1e85 ac3d 9e08 aebd c359 11be
00000180: e7bf 133e e745 bbbd b8af 13be e73a 253e
00000190: fa09 3d3e 2c3f e83d 0638 8bbe 6c59 623d
000001a0: 184e 9a3e deaf 9a3d 2c2e 463e 84fd 943d
000001b0: 95f5 5cbe 88e7 513c 8bc5 0cbd 278b 713c
000001c0: a228 e6bd c9fe 6c3e c279 7ebd 1268 593e
000001d0: c1c2 6bbe a340 6f3d 3c59 923d 9993 a83e
000001e0: 8a7b 99be 9773 a03e d4b9 efbc 1a6f 253e
000001f0: 1c1d 9fbd 57ca 863e 9967 883d 912a c8bd
00000200: 331b 7f3e 99e9 703e 9b9e 82be 9520 923e
00000210: ec6a 30be 74e8 f13d 53a3 d0bd 5dd9 683e
00000220: b380 a2be 709f 3c3d ef16 113e 651a b53e
00000230: 66e0 a23e a536 14be 6d82 89be 065c 413e
00000240: 46ba 0bbe 34a7 84bd c84f 8cbd 3f35 3f3e
00000250: 54a2 6e3c 8f56 93be 6e9e 0fbe 1c82 0fbe
00000260: 3191 03be c39e a4be 1dce 55bd d3e6 06be
00000270: f99a c03d 01e0 ebbd 5911 a2bc 398b e83c
00000280: 90b5 743e e200 713e 3236 7c3c 425b 8ebe
00000290: 885a 6fbe b591 0abe ab1e 803e 06b7 f83d
000002a0: 9db3 a73e 0f3c 933e 0e30 623e d900 3cbd
000002b0: c9f3 8dbe 61f7 443e f587 93be 3d0f 70be
000002c0: b243 babb 236f 91bd ed69 4e3e fa9a fa3d
000002d0: a8b0 c03d 2ae9 4c3e b091 09be 2c88 7dbd
000002e0: 2c68 f1bd 90aa 35be 22e9 a43e d78e 71bd
000002f0: ac6d 953e 4bef 2a3e e6ae eebb 116b 833e
00000300: 3b72 1d3e e4c2 323e da59 433e ee74 c6bd
00000310: 6f18 723e d847 1f3d be69 a4be ecc4 133c
00000320: 0385 86bd 5a95 69be fc4c 65be ada1 743e
00000330: 25f8 3a3e d489 22bd 1d99 75bd e7f7 6abe
00000340: e9e9 ad3e 5ca3 4cbe 23e8 813d a496 083d
00000350: 2a66 0cbd 7606 8c3c f1a1 8ebd 02a5 7d3e
00000360: 5bf3 b6bc c613 57be dc5c 74be 73cb 303e
00000370: 98e7 dc3d 0be8 f7bb fe51 543e 2500 8e3e
00000380: 5e79 87be caf6 843e 6728 06bd 881a 063e
00000390: 76d1 8cbe 397f 65ba 4bb1 aa3d e518 78be
000003a0: 3333 adbc 0916 d6bd 6f97 103d f692 9c3d
000003b0: e446 23be 7276 b23d 097f f33c 660d 8dbe
000003c0: 2b69 54be c6ba 7b3d ff6d 5c3e d1af e0bd
000003d0: 5af6 583e a09e 343e 61eb c5bd f5fd da3d
000003e0: 3cf0 e8bd 900d 973d e8db 58be be10 503d
000003f0: 232f 41be 2466 4cbe 89b5 6d3d f28c 0e3e
0.35524738 -0.26308426 -0.17814831 0.13279568 0.28673995 -0.21834357 0.25357288 0.3707123
0.08684115 0.22526667 0.17786677 -0.032573577 0.054506525 -0.07082718 -0.029247422 -0.07988677
0.07847882 0.08971359 0.10237733 0.082344055 -0.26829833 0.26317647 0.21520206 -0.14741014
-0.13171141 0.12704587 0.23512612 0.2506392 0.056896616 -0.21178734 0.0892611 -0.1228487
0.026515963 0.13922033 -0.09442511 0.104306705 -0.12027873 -0.32798755 0.20736043 -0.17994708
-0.14248005 -0.2759453 0.3206959 -0.0015455639 -0.12510361 -0.11530539 0.2684304 0.016011555
-0.10146198 -0.17018946 -0.18680443 0.07328668 0.22857434 -0.05199528 0.24797371 0.12121248
0.0057073366 -0.3129151 0.13990155 -0.18747972 0.32039106 0.31789893 0.19350167 0.17128363
0.28120312 -0.1613717 0.046282303 0.2477846 -0.018611943 -0.20971832 -0.1165855 0.39670902
0.0949442 0.22750649 0.21456148 -0.05094341 -0.24952453 0.120151274 0.04124898 0.2371916
0.1672896 0.036753625 -0.16100559 0.01807139 0.03688052 -0.0037554833 0.007401412 0.063122764
0.24147488 0.07331986 0.14774324 -0.10825481 0.10591457 0.084238276 -0.08497737 -0.14194398
0.14428674 -0.09144192 -0.144225 0.1613575 0.18460837 0.11340174 -0.2719118 0.05526106
0.30137706 0.07553075 0.1935355 0.07274917 -0.21578057 0.012811549 -0.03436808 0.014742649
-0.11238219 0.23144068 -0.062127836 0.21231106 -0.23023511 0.05841125 0.07145926 0.32925108
-0.29977065 0.31338188 -0.029263414 0.16155663 -0.07769224 0.26326248 0.06660385 -0.09773744
0.2491272 0.2352661 -0.2551163 0.28540483 -0.17228287 0.11811915 -0.101874016 0.22739168
-0.31738815 0.04605049 0.14168905 0.353717 0.31811827 -0.1447397 -0.2685732 0.1888276
-0.13645276 -0.06477204 -0.068511546 0.18672656 0.014565069 -0.28776976 -0.1402528 -0.14014477
-0.12848355 -0.32152376 -0.052198518 -0.1317399 0.09404559 -0.11517335 -0.019783663 0.028386699
0.23897386 0.23535493 0.015393781 -0.27804 -0.23374379 -0.13532145 0.25023398 0.12144284
0.32754222 0.2875676 0.22088644 -0.045899246 -0.27725056 0.19234993 -0.28814664 -0.23443313
-0.0056843394 -0.07101276 0.20157595 0.12236591 0.094086945 0.2001082 -0.13434482 -0.06189744
-0.11787447 -0.17740846 0.32209116 -0.058974113 0.29185236 0.16692846 -0.007284033 0.25667623
0.15375607 0.17457157 0.19077244 -0.09690271 0.23642133 0.038886875 -0.32111925 0.009019118
-0.06568339 -0.2281088 -0.22392648 0.238898 0.18258722 -0.039682224 -0.059960473 -0.2294613
0.33967522 -0.19984192 0.06343105 0.033346787 -0.03427712 0.017092925 -0.069644816 0.24769977
-0.022332838 -0.21003637 -0.23863548 0.1726511 0.107863605 -0.0075655035 0.20734403 0.27734485
-0.26459783 0.25969535 -0.032753374 0.13096058 -0.27503556 -0.00087546144 0.08334597 -0.24228247
-0.021142578 -0.104534216 0.03530067 0.07645218 -0.15945011 0.08713998 0.029723661 -0.27549285
-0.20743243 0.061457418 0.21526335 -0.10971034 0.21187726 0.17638636 -0.096640356 0.1069297
-0.11373946 0.07375634 -0.21177638 0.050797217 -0.18865637 -0.19960839 0.058034454 0.13920954

linear2.weight f4 [3, 256]
00000000: 8eca 1bbe a012 1b3c 0068 57be 1365 33be
00000010: 520f 0bbe 496c c9bd dd89 35be f52e e1bd
00000020: b5eb 483d 2b52 013d d1cb 76be 8729 203d
00000030: 4805 43bc c70d 17be dad4 93bc 7465 afbc
00000040: 3343 713d 403d 55be d866 edbc 99c3 f5bd
00000050: 03b2 5fbe 88e8 fc3d 5b51 f9bd d310 923d
00000060: 19d5 22bd db28 06be 0ea5 31be 592f cc3d
00000070: f22a 1b3c 060c a03d 3697 c8bd 460a 6dbc
00000080: 5a40 0cbe 0d10 ba3d 26ec f2bb fcb2 25be
00000090: 0858 38be 8559 fe3c 38ad 0cbe df3a 753e
000000a0: 194f 16be 758b 6cbe a7ed 3c3d a16c 91bd
000000b0: 05b0 01bd 56f9 4fbc 9bac 183e 1768 0b3e
000000c0: c3ed 65be 407f 1ebe 754f 1fbe 0f0a 79be
000000d0: cd9e 3bbd 9061 0ebe bfb8 d8bd 99c6 a33d
000000e0: fdc6 90bc 1229 283e 723a 27be 320b f23d
000000f0: 6f97 1e3b 7d82 1b3e f31e 15be 1905 4b3d
00000100: 9407 b6bd b24c 88bd d681 a63d 2e7e 82bd
00000110: 22dd 6ebc 93d0 ef3c a181 ec3d 95be 8d3d
00000120: 25e3 48bd ecc6 2fbd c0a4 11be 2153 40bd
00000130: 8f0a 723d 19c7 6d3d 9502 483d 8b7f 563d
00000140: 7145 c43d 11a2 5fbe e615 d9bd 8e89 19be
00000150: 2f2d 5cbe f026 b43b db0f 323e f201 1f3e
00000160: b0cf 0ebe ff6a 7ebe 30de ebbc a6c9 333d
00000170: 9b46 0b3d 0295 1ebe 9209 4f3d 1868 d8bd
00000180: f2a5 16bd 475d b2bd 1e08 28be d95d ca3d
00000190: a1a1 0ebe 4307 813c 0020 9dba 5dbd b0bd
000001a0: 8ed5 88bc 4d47 9f3c 7a94 7cbd e737 05be
000001b0: 75b0 a53d 6d83 94bd e44d eebd 4521 e3bd
000001c0: 27cc 57be 90df 25be a78a 09be 9e32 b4bd
000001d0: f509 acbd 0237 733d 0bdf bfbd 8193 083e
000001e0: 1a0d e63c 23a6 35bc d470 58be 126f f6bd
000001f0: f439 babd e0f7 91bc 274d 17bd 671c f9bc
00000200: 6346 b7bd fd31 25be d921 2ebd 7800 33bd
00000210: 8b56 bcbd bf4f 7c3d 3487 97bd 56cd 9bbe
00000220: 1e29 f03d eba8 97be 05ce 54bd 30ba bf3c
00000230: b041 1cbe 452a d43c b058 a53c 8853 21be
00000240: 03d2 c5bd c4b3 843c a84c a5bd e4a3 4fbd
00000250: 9091 ab3d ca48 81bd fd65 4c3c 40a4 cebc
00000260: a1bd 27be b3a5 323c 4e29 42bd 532a e13d
00000270: 5aff f73c 39b4 43be e5d8 2cbe 97cc 44bd
00000280: 0607 f0ba 58f5 4fbd 3093 3dbe e8fe c7bd
00000290: 0c02 d33c 34cd 6fbd 805a 813d 43fa 23be
000002a0: 8339 4f3d 774c 0a3d 1da3 8cbd 9e37 8bbd
000002b0: 61cd 8a3d c696 453e 3937 07be d1fc febd
000002c0: ef17 8bbd b1a5 263d 8371 9e3d 06d3 3bbe
000002d0: 9d8a c4bd 43bf 33be f3ba 453c bb9b 0dbe
000002e0: 85c8 013e c6ad 76be b3db 0a3d 6e70 43bc
000002f0: 5be5 09be 22cb 90be 1399 0b3d 11b4 103e
00000300: ebba d93d 2d42 95bd 0914 bc3d 3df3 123e
00000310: 2ab4 19be c992 c23d 0a02 ad3c 376a c4bc
00000320: a1c0 643e 504f 0bbd 28f4 07be 41c6 80bd
00000330: d595 d83d 8291 86bd 758b 21be 5728 2ebe
00000340: 9f04 fb3c 89a4 4cbe 0b6d 86bd adfe 613d
00000350: e28d 223d fa0a 00bd f6ba f3bd 9ece e9bd
00000360: 9006 2fbb 2013 dcbd f9d0 99be d844 593c
00000370: eda9 2fbe 2525 04be 681e 81be 7264 02be
00000380: 0d84 8b3d 7f4b 86bd 1b4f efbd 0ba9 0cbe
00000390: b25f ad3c 681f 1d3d 91b0 f03c 900b 8dbb
000003a0: 1cdc 583d e422 4bbe bb96 3bbc fa11 06be
000003b0: 09d6 f6bd 50aa bb3d 1558 923d 4ccb c0bc
000003c0: b072 62bd a660 2cbd c068 473d 0bc9 b1bd
000003d0: 592a ba3d 8586 00bc fe7c cabd dab5 a63d
000003e0: 7ac5 2abe 0baa b93d b429 3cbe af04 2abd
000003f0: d9ce 1fbe b835 65be 75fc f8bd e245 cf3d
-0.15213987 0.00946489 -0.21035767 -0.17519026 -0.13580063 -0.09835107 -0.17728372 -0.109952845
0.049052913 0.031572502 -0.24101187 0.039102104 -0.011903115 -0.1475135 -0.018045831 -0.021410681
0.058901977 -0.20824146 -0.028979704 -0.12000198 -0.2184525 0.12349039 -0.121737204 0.07132115
-0.039754007 -0.13101523 -0.1734812 0.09969968 0.009470688 0.07814793 -0.09794466 -0.014467781
-0.13696423 0.09085093 -0.007413405 -0.16181558 -0.18002331 0.031048546 -0.13737953 0.23948239
-0.14678611 -0.23100074 0.04612508 -0.071007974 -0.031662006 -0.012693724 0.14909594 0.13613926
-0.2245398 -0.1547823 -0.15557654 -0.24320243 -0.04580574 -0.13904405 -0.105821125 0.07996864
-0.01767301 0.16421917 -0.16330889 0.118185416 0.0024199148 0.15186496 -0.14562587 0.04956541
-0.08888164 -0.066552535 0.08130233 -0.06371723 -0.014579089 0.02927426 0.11548162 0.06921116
-0.049044747 -0.042914316 -0.14223003 -0.046954278 0.0590921 0.058051202 0.048830587 0.05236773
0.095835574 -0.21839167 -0.1059988 -0.14993879 -0.21501611 0.005497806 0.17388861 0.15528086
-0.13946414 -0.24845503 -0.02879247 0.04389348 0.03400288 -0.1548653 0.050546236 -0.10566729
-0.03677935 -0.087091975 -0.16409346 0.09881181 -0.13928844 0.015750533 -0.0011987686 -0.08629868
-0.016703393 0.019443179 -0.061665036 -0.13009606 0.08090297 -0.0725163 -0.1163595 -0.1109033
-0.21073972 -0.16198564 -0.13431798 -0.08798717 -0.08400337 0.05937863 -0.09368714 0.13337518
0.02808242 -0.011086973 -0.2113679 -0.12032904 -0.09093085 -0.017818391 -0.036938813 -0.030409051
-0.08948972 -0.1613235 -0.04251275 -0.04370162 -0.09196194 0.06159949 -0.07398835 -0.30430096
0.117265925 -0.29621062 -0.051954288 0.02340421 -0.15259433 0.025899062 0.020183891 -0.15754521
-0.09659197 0.016199 -0.08071262 -0.050693408 0.08377373 -0.063127115 0.012475488 -0.025224805
-0.16380931 0.010903764 -0.047402672 0.10994401 0.030273128 -0.19111718 -0.16879614 -0.048046675
-0.001831264 -0.050771087 -0.18513179 -0.097654164 0.025757812 -0.058545306 0.0631609 -0.16013436
0.050591957 0.03376433 -0.06867049 -0.067977175 0.06777454 0.19295797 -0.1320466 -0.12450565
-0.06791674 0.04068536 0.077364944 -0.18342218 -0.09596751 -0.1755343 0.012068498 -0.13828938
0.12674148 -0.24089727 0.033900928 -0.011928661 -0.13466398 -0.28279978 0.03408153 0.1413119
0.10631355 -0.07288013 0.09183509 0.143506 -0.15010133 0.09500653 0.021119136 -0.023976428
0.22339107 -0.034011185 -0.13276732 -0.06287814 0.10575453 -0.06570722 -0.15775855 -0.17007576
0.030641852 -0.1998464 -0.06563767 0.05517452 0.03968609 -0.031260468 -0.11900894 -0.11416362
-0.0026706792 -0.10745835 -0.30042246 0.013261043 -0.17154665 -0.12904795 -0.2521851 -0.1273363
0.06812296 -0.065573685 -0.1168501 -0.1373636 0.021163795 0.03836003 0.029381068 -0.004304357
0.052944288 -0.19837528 -0.011449511 -0.13092795 -0.12052543 0.09163344 0.071457066 -0.02353444
-0.055285156 -0.04208436 0.04868388 -0.08680924 0.090901084 -0.007844572 -0.098871216 0.08140154
-0.16676894 0.09065636 -0.18375283 -0.041508373 -0.1560625 -0.22383773 -0.12157527 0.10120751

linear2.bias f4 [3]
00000000: 7fed b4bc eb07 46bd e8d4 e8bd
-0.022085903 -0.048347395 -0.11368734
